models/vocal_separator_model.pth (torch, 23016 bytes, 8 tensors)

encoder.0.weight f4 [16, 1, 5]
00000000: f242 41be 78ba c63e 51b3 11be 6673 4b3e
00000010: d2f9 b53e 5b44 d93d 84dd c73e da5b 5dbe
00000020: 6b95 8cbe 02e2 453e 88d6 dc3e 3152 4ebd
00000030: 8cd7 9dbe 237f c2be b15f 033e 00ee 2fbe
00000040: 7a05 18be 83e9 0f3e db46 5ebe cab8 85be
00000050: 501c 4f3e b8df ab3e 3bf3 8ebe 17af bd3e
00000060: abf6 343d 1585 df3d a59f 68be 8a38 78be
00000070: fcc6 3bbc 2825 35be 67eb b8bd f3e3 ba3e
00000080: e0a4 c7be 13e9 2bbe 24e1 3ebe ae09 8cbe
00000090: ed01 3e3e c75f 1f3e bf15 c6be c2c8 1abe
000000a0: 0fca c43e ef10 cb3e ba8e 1f3e a674 ccbe
000000b0: 1454 50be b203 f0bd 8387 7e3e f86f e2bd
000000c0: 1484 98be ccd7 863d 3161 42be 6922 0a3d
000000d0: 40d8 79be cecd b5be 5b02 15be d1f1 0ebe
000000e0: 6952 ac3e 78d4 203e 1efe d13e 59f3 7d3d
000000f0: 6741 81be ab45 283e eb81 1abd 9473 923e
00000100: b78c 643e ea7b bbbe 2a92 423e 5f39 343e
00000110: ff86 db3e b7d9 c83d aa25 6fbe 3047 80be
00000120: 648e 523e 3687 a23e 5d8f 43be eb80 2f3c
00000130: 58df a9be 3391 9cbe cca1 cabd 5891 6139
-0.18873194 0.3881414 -0.1422856 0.1986824 0.3554216 0.10608741 0.3903619 -0.2161707
-0.27457747 0.19324496 0.43132424 -0.050371353 -0.30828512 -0.37987623 0.12829472 -0.17180634
-0.14845839 0.14053921 -0.21706717 -0.26117545 0.20225644 0.3356912 -0.27919945 0.37047645
0.044180553 0.10914055 -0.2271715 -0.24240318 -0.011461016 -0.17689955 -0.090292744 0.36502036
-0.38992977 -0.1678813 -0.18640572 -0.27351135 0.18555422 0.1556388 -0.38688466 -0.15115646
0.38435408 0.39661357 0.1558179 -0.39932746 -0.20344573 -0.11719455 0.24856381 -0.110565126
-0.29788268 0.06584129 -0.18982388 0.033724222 -0.24398899 -0.3550858 -0.1455168 -0.13959433
0.33656624 0.1570605 0.4101419 0.061999653 -0.2524521 0.16432826 -0.037721556 0.28603804
0.22319303 -0.36617976 0.1900107 0.1760001 0.4287643 0.09807151 -0.23354211 -0.25054312
0.2056213 0.31743783 -0.19097658 0.010711889 -0.3317821 -0.30579528 -0.098941416 0.00021511817

encoder.0.bias f4 [16]
00000000: 5d95 ecb9 9398 993e 28b6 ac3e 7a97 bdbe
00000010: df1a 203d 2ba9 963e 2074 e3be 46ef c33e
00000020: 3636 d3be 7514 aa3d 283f d3be 4763 6e3e
00000030: 6e66 04be d2f8 c83c 831e 843c 37b6 883e
-0.00045124712 0.29999217 0.33732724 -0.3702963 0.039088126 0.2942594 -0.44424534 0.3826849
-0.41252297 0.08304683 -0.41259122 0.23280059 -0.12929699 0.02453271 0.01612783 0.2670152

encoder.2.weight f4 [32, 16, 5]
00000000: c9a2 45bd 2b6b 133c c92f bd3d 122e 97bd
00000010: 76b5 d3bc 630b f0bd ec2b 43bd 68b4 a33d
00000020: 816c 773d 1491 913d 300d adbc 656b 913d
00000030: c5fe dbbd 0f80 e3bd d9fb b23d 84c4 c23d
00000040: 7164 ddbd cc61 8c3d 907b 713d a304 5cbd
00000050: 6ecb 45bc 4a9c a4bd 58ca c4bd 23d8 4e3d
00000060: f6b4 3e3d da54 9e3d fba0 6e3c 96d9 a23c
00000070: dd0a c0bd 6e74 bd3d b07f 063d 2835 9ebd
00000080: be73 8d3d db00 7e3d c62d 14bc 24cd d13b
00000090: 8fdb ffbc 75af b0bd 7384 b03d 760b 28bc
000000a0: ab0c b33d a979 c63d 39bb 9dbd 8f83 a4bd
000000b0: 4541 7e3d 0cee 4b3d 266a 1d3d 3b58 78bd
000000c0: 2f9b 073d 1aac 2a3d f6ca 72bd 8804 c4bd
000000d0: 5e89 843c 4d74 26bd 2ccc c2bd c16c a6bd
000000e0: 3eb5 423b daed 793b 605f 753d f3c1 4abd
000000f0: c8a9 15bd c5da e1bd 8b8d 383d f838 49bd
00000100: 4fd5 213c 4b93 2e3d 9c1f 9fbd afcb bf3d
00000110: af87 f2bd 8484 8ebd f553 35bd c50a 3a3d
00000120: b2e2 18bd 8c16 3a3d e9b2 183d e8c0 b9bc
00000130: bcfe 8e3c 959f d2bc fe3c 003b 58a3 243c
00000140: 53a5 9c3d 4b68 e8bc 54fe aabd 2d75 c3bc
00000150: 7b89 4ebd b874 dbbc ad0f 40bd f461 c53d
00000160: b3c4 20bd a29f 223d 7afe 543d fcf6 cebd
00000170: d695 32bd 99a3 c9bd 001c a3bc fe87 813a
00000180: 8d82 71bc 9bb6 663c ae94 f9bc fc34 6fbd
00000190: 3c5a 63bd 3a60 d9bd ff33 b83d a55e a3bc
000001a0: d4d8 bd3d a074 0e3c 0642 89bd 3b35 84bd
000001b0: b802 903d 81a2 543d c138 8dbd fdfc aabc
000001c0: 666e c6bd b43a a0bd a6f0 f03c 748c a43c
000001d0: 8771 6d3c 6289 35bd 1ff9 c13d ebf0 b53b
000001e0: 5a58 98bc 86f9 d9bb 7cdc cb3c 23d7 1fbd
000001f0: 9861 dcbd c60b d83c dbf6 8abc 39ac a1bd
00000200: d499 f7bb 5a82 993d 9fc7 263d 3d3c c2bd
00000210: b692 d93d cab7 73bd a8cb baba 02d7 1abc
00000220: 1676 8e3d 8f4f 923c 0630 a23c ff99 6dbd
00000230: 2033 b13d a2bf 9dbd 7cb9 57bd 1ef2 e2bd
00000240: a642 cebd 9223 c63d 3efb e2bd 9d41 583d
00000250: 6ba5 25bd 1627 86bd 73eb 983d e447 c03d
00000260: d8dc 7b3d a242 86bd 8605 81bd a0b6 00bd
00000270: 0fc7 5cbd 86d5 7abc 7cb9 59bd a0d7 e33d
00000280: 5f13 c83a 809b 6b3d a09b 433c a5bb cd3c
00000290: 78ec 843d ee20 bebd cde8 3dbd 39ca cdbd
000002a0: 9559 3ebd bef1 a53c 2c53 8cbd 9ab0 da3c
000002b0: 7c2a 01bd 9371 b23d e5a9 c03d 5788 633c
000002c0: 39b3 c03d f8ba a4bd 3717 ac3d 1f12 eabc
000002d0: 56e0 313d 7d91 223d b850 833d 6653 b33c
000002e0: 9b1e 753d 85b2 733d 8ab7 55bd 6415 e13d
000002f0: deef 94bc ea62 c8bd 077e c4bd fa64 afbd
00000300: 08f7 29bd 124b 343d 8be5 9e3d 27c3 6cbd
00000310: 5ec9 433d c228 b33d 8374 2fbd bea6 c0bc
00000320: 9a48 a13c f342 bfbd 7d1b 893d e5ba 763d
00000330: 5687 80bd 6bb2 4abd bda2 6a3d b6d3 4cbd
00000340: 0842 89bd a834 553d 2f67 d83d 88af f43b
00000350: f384 b53d 6f14 22bd 64c8 8cbd 9c2f a9bd
00000360: d33d 983c ece1 6a3d 1bb0 4fbb db8f 60bc
00000370: c084 3dbc 79f7 a53d bfd9 863d 7e32 5d3d
00000380: f7a8 9abd fd15 7f3d b5a1 093d de6e cb3d
00000390: 7aab 7bbd b8f2 f0bc 7507 b93d ca5d 0abd
000003a0: 37a1 b43d d785 c6bd 704f a43d daff aebd
000003b0: 31fa 2abd f918 cebd 20eb da3d 4190 b8bc
000003c0: a214 0d3b 3b21 893d a343 b4bd dd51 bbbd
000003d0: 7991 94bd 3b0c c5bd 8107 463c 70ee 1e3d
000003e0: 939c 853d 50db b13d 633a 8f3c b34a 22bd
000003f0: f7a5 89bc 1aa5 9cbd e12a 6b3d 08be a4b9
-0.048250947 0.008997719 0.0923763 -0.07381834 -0.025843363 -0.11720922 -0.04764931 0.07993394
0.06040621 0.071077496 -0.021124452 0.07100562 -0.10741953 -0.111084096 0.087394424 0.09510139
-0.10810173 0.06854591 0.05895573 -0.05371536 -0.012072427 -0.08037622 -0.096089065 0.050499093
0.046559297 0.07731028 0.014564748 0.019879144 -0.09377072 0.09250723 0.032836616 -0.077249825
0.06906842 0.062012535 -0.009044116 0.0064026285 -0.031232623 -0.08627216 0.08619013 -0.010256639
0.087426506 0.096911736 -0.077017255 -0.08032905 0.062073965 0.049787566 0.03843131 -0.060631018
0.03310698 0.041668035 -0.05927559 -0.09571177 0.016178783 -0.040638257 -0.09511599 -0.08126212
0.002971008 0.0038136155 0.05990541 -0.04950137 -0.03653887 -0.11028055 0.04505686 -0.049126595
0.009877517 0.04262094 -0.07769701 0.093650214 -0.11842286 -0.06958869 -0.04426952 0.045420427
-0.03732557 0.04543166 0.037279997 -0.022674993 0.017455451 -0.02571086 0.0019567604 0.01004871
0.076487206 -0.028370043 -0.083492905 -0.023859585 -0.05042408 -0.026789054 -0.04688995 0.09637824
-0.039250087 0.03970302 0.0520005 -0.10105702 -0.043599926 -0.09845657 -0.019910812 0.0009882448
-0.014740598 0.0140816225 -0.030466404 -0.05840014 -0.055505976 -0.10614057 0.089942925 -0.019942591
0.09269872 0.008694798 -0.06702046 -0.064554654 0.070317686 0.05191279 -0.068955906 -0.020872587
-0.096890256 -0.07823697 0.029411625 0.020086505 0.014492399 -0.04432047 0.09471344 0.0055524013
-0.018596817 -0.00665206 0.024885409 -0.03902353 -0.10760802 0.026372802 -0.016963413 -0.07894177
-0.0075561795 0.07495566 0.040717717 -0.09484146 0.10623686 -0.059501447 -0.0014251368 -0.009450676
0.06956117 0.017860202 0.01979829 -0.05800819 0.086523294 -0.07702567 -0.052667126 -0.110813364
-0.10071306 0.09674753 -0.11083077 0.05279695 -0.040440958 -0.06550424 0.074667834 0.09388712
0.06148991 -0.06555678 -0.06299882 -0.031424165 -0.053900775 -0.015309697 -0.053155407 0.111251116
0.0015264562 0.057521343 0.011938959 0.02511389 0.06490415 -0.092836246 -0.046364594 -0.100483365
-0.04647215 0.020256873 -0.06851801 0.026695538 -0.031534657 0.08713069 0.09407405 0.013887486
0.09409184 -0.08043474 0.084028654 -0.028573094 0.043426834 0.03968953 0.0641188 0.021890353
0.05984364 0.05949642 -0.05217699 0.10990408 -0.018180784 -0.09784491 -0.0959435 -0.085641816
-0.041495353 0.044016905 0.077586256 -0.0578033 0.04779946 0.08748008 -0.042835724 -0.023517009
0.01968794 -0.093389414 0.06694696 0.06023683 -0.06275813 -0.04948656 0.057284106 -0.05000659
-0.067020476 0.05205217 0.10566556 0.007467214 0.08863249 -0.03957027 -0.06874159 -0.08261034
0.018584168 0.057344362 -0.003169066 -0.013706173 -0.011567295 0.08103842 0.065845005 0.05400323
-0.07551759 0.06227683 0.03360148 0.099332556 -0.06144283 -0.029412612 0.090346254 -0.03378085
0.08819812 -0.09693497 0.08022964 -0.085448936 -0.041742507 -0.10063357 0.10689378 -0.022529723
0.002152719 0.06695791 -0.08801963 -0.091464736 -0.07254309 -0.096214734 0.01208675 0.03880161
0.06524005 0.08684409 0.017483896 -0.03962202 -0.016802771 -0.07648678 0.05741394 -0.00031422102

encoder.2.bias f4 [32]
00000000: c381 933d 871f fabc 1f65 aabd fe64 ba3d
00000010: e989 3a3d 4090 193d 914a b5bd f713 2c3d
00000020: 0c3d 553d 579f f0bb 701a 9e3d 7e1c e43b
00000030: 1c11 d0bd b839 343c ac75 3cbd e0c1 cebd
00000040: 3758 99bc 4432 033d be15 bd3c c33c 04bd
00000050: 9fdf fabc 0074 f63b 42ff 473d 703d 8dbd
00000060: 0315 36bc 9035 bd3d 63ef 4fbd e99a be3d
00000070: a2c9 0ebd 8cd4 76ba 457d 503d bc90 3bbd
0.072024845 -0.030532612 -0.083200686 0.09101294 0.045541678 0.037491083 -0.08852113 0.042011227
0.052060172 -0.0073432135 0.07719886 0.0069614043 -0.10159513 0.011000089 -0.04601066 -0.100955725
-0.018718822 0.03203036 0.023081657 -0.03228451 -0.030624209 0.0075211525 0.048827417 -0.06896484
-0.011113408 0.09238732 -0.050765406 0.093068905 -0.03486026 -0.0009415827 0.050900716 -0.045792326

decoder.0.weight f4 [32, 16, 4]
00000000: 8965 c33c 88fa 803c 4d02 ff3d d464 943d
00000010: 642d 3cbd c04f 913b e0d2 5bbc fce6 8ebd
00000020: 2169 253c 861d 223d 375e dcbd 5032 2ebd
00000030: 662d 033d c443 163c 399e 03be 5a32 24bb
00000040: 116f ddbd 3882 7abb 3b58 d5bc 03c5 063d
00000050: 7457 eb3d 6199 d23d fbdf bebd e95a 7abc
00000060: 6109 703c 0103 d53d d5ed 76bd 2130 c83b
00000070: 0e98 a63c aa19 c4bd 15c2 963b eede d73d
00000080: 40f7 c5bc 101b af3d 209a ab3c 54c7 d13d
00000090: 2044 a43b 4a10 8cbd 3044 b6bd f613 e53d
000000a0: 2517 d43d 664c cfbd fcb4 413d e152 d43d
000000b0: 2089 d93d aaa2 c9bd 3362 06be aac7 923d
000000c0: 0c0f c0bd 4ee8 18bd 687c c93c 2922 87ba
000000d0: a966 02bd 4d63 9b3d 0f25 ad3c f361 a83d
000000e0: f862 9ebd f803 953c 74e0 383d 1c8d 0ebd
000000f0: 8d50 febc c3b0 8bbc d3bc f8bd d012 b73d
00000100: a07e f2bd 68df fdbd 641e a1bd f014 843d
00000110: 68fe 603d 8c86 89bd 505b 363d 9063 1fbd
00000120: 3a04 863d 4d3f 883c 319a 963d 62f4 0a3d
00000130: 4f0f 5bbd aea3 aebd 06f8 393d 64ae e33b
00000140: 365d 33bd 0d37 9cbd a192 983d bfe4 9b3d
00000150: a438 8d3d 6d81 8ebb 9a4e e43d 1345 3fbc
00000160: 822b a23d ef43 863d fba3 8cbd e827 0ebd
00000170: ead8 6c3c af9c d33d 1706 fe3d 2089 a2bd
00000180: 32f1 8ebd 74e2 463d 204d 91bc 3836 cf3d
00000190: d885 f43c 7c1a a53d 0051 40bb 94d9 b63d
000001a0: c396 bebc a7ee 0c3d e6cc ecbd 1aa2 64bd
000001b0: 64a4 8bbd 2510 38bd aff3 2d3d e2c3 6639
000001c0: 0aeb 91bd 57b0 523b e9b5 debd a875 a33d
000001d0: 9076 e93d 6fe0 a7bc 77d0 473d d9c3 ca3d
000001e0: 3485 cbbd 7043 7cbd f048 90bc 2007 fb3d
000001f0: 9010 803d 88b5 d03d 1e2d e1bd fce1 bf3d
00000200: b03e c23d a824 5b3d a8f3 91bc 0096 093c
00000210: e03e a63d 7860 673d 481d 433d d233 983d
00000220: c0b2 0d3c 1eb0 82bd 6064 a3bd 1289 973d
00000230: 1cf2 51bd 8892 8d3c 1e25 f23d f6cc dd3d
00000240: d0ee 00bd 6497 f4bd 6ed0 8c3d f2dc 9fbd
00000250: a89b 873d 0893 033d c0ed 30bc 4824 e63d
00000260: 4092 9fbb 8821 6c3d 6048 f03d de7d ac3d
00000270: 64c7 bcbd 5667 a6bd 702b 22bc 369f a43d
00000280: 0026 ee3b 8092 10bc be9b c8bd bca9 c0bd
00000290: ec42 c93d e8c7 e2bd 3895 f63c 70c0 5dbd
000002a0: 0202 9abd 0016 25bb 6c77 82bd 80c1 b1bd
000002b0: 02b8 f4bd cc78 7b3d ac8d 3c3d ead0 b53d
000002c0: ea94 dd3d 2c72 70bd 8ceb 28bd 6cef da3d
000002d0: 68c7 ec3c 3027 5f3d 38db 8ebc 8880 e63c
000002e0: e215 d53d 0e2b e1bd 3058 8b3c 5c56 a63d
000002f0: 14d9 0dbd a235 87bd a00c c53c 44c0 35bd
00000300: 729f 21bc 88ee 833d 5ad0 b2bd cc45 e1bd
00000310: e0dc ef3b d4eb 8e3d a8f3 f1bd 12a1 f73d
00000320: 80f6 c9bd 4c69 01bd ee2e 98bd 6e75 2e3d
00000330: 0bab 193d 525c 993c 3119 6dbd 0c20 473d
00000340: 159d 19bd f044 bcbd 9267 80bc 3043 303d
00000350: 0dc0 0dbd c429 63bd 04fc b13d fc9f 83bd
00000360: 8e55 df3d 32b6 a43c 4022 cfbd e986 cfbd
00000370: 7c0c dfbd 57c1 fdbd 7249 4bbd d721 b6bc
00000380: 3447 21bd 0a85 af3d 808b b93d eafc c8bd
00000390: 96bb f83d aa3f 93bd b890 fcbd 3ae1 ec3d
000003a0: 9b6d c23d eb49 57bd 640f 86bd 4434 483d
000003b0: d987 c8bd 95b0 033d a33c 223d c6c4 653c
000003c0: a269 0e3c 0fec a8bc 3b98 0e3c c28c af3d
000003d0: 1550 eb3a f41c dc3d 6530 033d 08e8 e5bd
000003e0: 90d3 29bd 2224 a13d c0fb 20bd 88e9 aebc
000003f0: 47a2 2d3d 0eb4 0cbe d37d 98bd 1f7b ccbd
0.023852127 0.015744463 0.12451611 0.07245794 -0.045941725 0.004434556 -0.013416976 -0.069776505
0.0100958655 0.039578937 -0.107601576 -0.04252845 0.032025717 0.00917143 -0.12853326 -0.0025054426
-0.108122 -0.003822459 -0.026043048 0.03290273 0.1149129 0.10283161 -0.09320065 -0.015280464
0.014650674 0.104009636 -0.060285408 0.006109253 0.020336177 -0.095752075 0.004600773 0.10540567
-0.02416575 0.08550084 0.020947516 0.10243097 0.005013004 -0.068390444 -0.088997245 0.11185448
0.10355977 -0.10121994 0.04729174 0.103673704 0.10621858 -0.09845479 -0.13123398 0.07166989
-0.0937787 -0.037330918 0.024595454 -0.0010309863 -0.031836186 0.075872995 0.021135835 0.08221807
-0.077337205 0.018190369 0.04513593 -0.03480254 -0.031044269 -0.01705206 -0.1214539 0.08939135
-0.11840558 -0.12396127 -0.07867125 0.06449306 0.05493012 -0.06715116 0.044520676 -0.03891331
0.06543775 0.016631747 0.073536284 0.033924468 -0.053481396 -0.08527313 0.04540255 0.006948279
-0.043790065 -0.076276876 0.07449842 0.07611989 0.06895569 -0.004348925 0.111478046 -0.011674183
0.07918455 0.06555926 -0.06867214 -0.034706026 0.014456013 0.103326194 0.12403505 -0.07936311
-0.06979598 0.048555806 -0.017736971 0.10117763 0.029848978 0.08061692 -0.0029345155 0.089282185
-0.023265248 0.034407284 -0.11562519 -0.055818655 -0.068184644 -0.04493727 0.042468723 0.00022007481
-0.07124908 0.0032148564 -0.1087454 0.079814255 0.11399567 -0.02049276 0.048782792 0.09900636
-0.09937516 -0.06158775 -0.017612904 0.12257218 0.06253159 0.10190874 -0.109949335 0.09369275
0.09484613 0.053501755 -0.01781638 0.008397579 0.08117461 0.056488484 0.047635347 0.07431759
0.008648574 -0.06381248 -0.079781294 0.07399191 -0.051256284 0.017281786 0.11823486 0.10830109
-0.03147775 -0.11942938 0.06875692 -0.07805814 0.06621486 0.03212264 -0.0107988715 0.11237389
-0.0048697293 0.057649165 0.117325544 0.08422445 -0.09217718 -0.081251785 -0.009898052 0.080381796
0.0072677135 -0.008823991 -0.097953305 -0.09407374 0.098272175 -0.11073285 0.03010045 -0.0541386
-0.07519914 -0.0025190115 -0.06370434 -0.08679485 -0.11949159 0.061394498 0.046033546 0.08877738
0.10819419 -0.058702633 -0.04124026 0.10690197 0.028903678 0.05448073 -0.017438516 0.02813746
0.104045644 -0.1099454 0.017009825 0.081219405 -0.03463085 -0.066020265 0.024053872 -0.044372812
-0.009864675 0.064419806 -0.08731146 -0.10999641 0.0073200315 0.069785744 -0.11814052 0.120912686
-0.09861469 -0.03159456 -0.07430826 0.04259246 0.037516635 0.01872078 -0.057885353 0.048614547
-0.03750332 -0.09192836 -0.015674386 0.043032825 -0.034606982 -0.055459753 0.08690646 -0.06426999
0.1090499 0.020106409 -0.101139545 -0.10133154 -0.10891053 -0.12390392 -0.04963059 -0.022232933
-0.039374545 0.08570297 0.09059811 -0.098138645 0.12145154 -0.07189877 -0.123322904 0.11566396
0.09493562 -0.052560728 -0.06545904 0.04887797 -0.09791536 0.032150824 0.03960861 0.014023965
0.008692177 -0.020620374 0.008703287 0.08571769 0.0017952943 0.1074771 0.032028574 -0.11225897
-0.041461527 0.0786822 -0.039302588 -0.02135159 0.042391088 -0.1374056 -0.07445874 -0.09984421

decoder.0.bias f4 [16]
00000000: 6130 8cbd 2493 8ebd 5a8f 053e fbfb b33d
00000010: 13c2 cf3d f249 b13c 9e3c 873d c2d3 1c3d
00000020: c054 a7bd f0da 3cbd f5f7 b03d 075d d93d
00000030: e00b c83d 4c52 973d a20c 86bd 9992 8c3d
-0.06845165 -0.069616586 0.13042966 0.08788296 0.101444386 0.021641705 0.06603359 0.038287885
-0.08170462 -0.046107233 0.08641044 0.10613447 0.0976789 0.07388744 -0.06545378 0.06863899

decoder.2.weight f4 [16, 2, 4]
00000000: 6009 99be 79bd 08be 8d49 4e3e 8e8e 35bd
00000010: a459 81be 253b a1be 8c48 4bbe af66 743e
00000020: f8ec 24be 5d20 69be 82f3 013e ef55 ecbd
00000030: 2087 a73e f314 5f3c 0a84 1cbe aa5c b0be
00000040: 450a f73d 8085 c93d 0b98 b73e 4f35 c43d
00000050: 1d31 34be 17f4 273d cda5 9bbe 569f be3d
00000060: 17be f7bc 8097 72be d4a2 92bc c7cb cebd
00000070: 9567 d5bd b7f9 68be f53c 5b3e 4aab 953e
00000080: 70bb 7dbd b452 393e 295f 1ebe f8ee 8ebe
00000090: 5b38 59bd 58e7 813e 98e7 973d 2a09 91be
000000a0: d717 25bc 397c 123e 0423 903e 35dd 683e
000000b0: f68a cdbd 99ee 8d3e ea7f 90be 9824 9b3e
000000c0: 2d1c 43be eeba 133e 08ef e63d 0e6a 8f3e
000000d0: 00cc 803e 53ea 853e 8c74 b33e ef01 0dbc
000000e0: 7bb9 9bbe 127f 2cbd 548a 7dbe 3d6e 993e
000000f0: 9d2c eb3d bccd 7f3e 3361 7bbe 3afe 06be
00000100: 4146 98be 6561 113e 8e10 debc 4771 893b
00000110: 971a 963e 62e8 d5bc e061 663d 1f1f b33d
00000120: a882 25be 68a2 0c3e 1952 0e3e c456 4a3e
00000130: 965c 57bc 3ea6 0c3e fd33 dcbd 4c39 723e
00000140: 44a8 a13e 14ec a3be 0333 593e ddd0 683e
00000150: 4fd0 1fbe 6157 2abe e705 963d 05aa 5c3e
00000160: 2440 debd 63e6 943c a579 e0bd 8e91 66be
00000170: 9a77 b43e 02c3 b9bd b1ba 39bd 7fc8 9d3e
00000180: c4df 6e3d 6396 163e 3dd7 483d bd53 323e
00000190: 9005 2a3e 7d08 213d f940 a73d ef27 0a3e
000001a0: 8b4b 5abe 14a9 d13d 743b c9bd 3158 833e
000001b0: 6f72 66bc 9e91 78be 2cf8 5cbd 3761 c4bd
000001c0: b14e 7cbe 7f9b 0bbe ce9b 8c3e fc15 b3be
000001d0: efbd 663c 1060 0ebe 5c19 933e 449d b3be
000001e0: cee0 9a3d 4eac 39bd 7c7e 8ebe d036 d9bd
000001f0: 0532 993d b79b 3a3d df78 3d3d e3bb 6b3e
-0.29889965 -0.13353528 0.20145245 -0.044325404 -0.25263703 -0.31490436 -0.19851893 0.23867296
-0.16106021 -0.22766252 0.12690547 -0.11539828 0.3272028 0.0136158345 -0.15284744 -0.34445697
0.12062506 0.09839916 0.35858187 0.0958048 -0.1759686 0.041004267 -0.30399933 0.09307735
-0.03024201 -0.23690605 -0.017899908 -0.10097461 -0.10420147 -0.22751509 0.21409972 0.29232246
-0.061946332 0.18097955 -0.15465988 -0.27916694 -0.05303226 0.25371814 0.0741722 -0.28327304
-0.010076485 0.143052 0.28151715 0.22740634 -0.1003627 0.27721098 -0.2822259 0.30301356
-0.19053717 0.14426777 0.1127606 0.280106 0.2515564 0.26155338 0.35049856 -0.008606418
-0.30414948 -0.04211337 -0.24759799 0.29966918 0.11483119 0.24980825 -0.24548797 -0.13182917
-0.297411 0.1419731 -0.027107503 0.004194412 0.2931716 -0.026111785 0.056245685 0.0874617
-0.16163123 0.13733828 0.13898505 0.19759661 -0.013144633 0.13735291 -0.107521035 0.2365467
0.3157369 -0.3201605 0.21210866 0.22735925 -0.15606807 -0.16634895 0.073253445 0.21549232
-0.108520776 0.018176263 -0.10960702 -0.22516462 0.352475 -0.09070398 -0.04534406 0.3081703
0.05831887 0.14705805 0.049033392 0.17414756 0.16603684 0.039314736 0.081666894 0.13491796
-0.2131788 0.10237327 -0.09825793 0.25653222 -0.014065369 -0.24274299 -0.053947613 -0.09588855
-0.24639393 -0.13633536 0.2746262 -0.3497771 0.01408337 -0.13903832 0.28730285 -0.35080922
0.07562409 -0.04533034 -0.27830875 -0.10606158 0.074802436 0.045558657 0.04625785 0.23020892

decoder.2.bias f4 [2]
00000000: d122 0ebd 17d3 94bd
-0.034701172 -0.07266825
